pytorch/tutorials/cifar_net.pth (torch_old, 249562 bytes, 10 tensors)

conv1.weight f4 [6, 3, 5, 5]
00000000: eee9 7fbd 5651 93bd 1a0d 31bd b0d9 a7bc
00000010: c808 3fbe a281 a3be 8bb4 cabd 8c02 3abd
00000020: a3e7 9bbe c71d 44be a8ec c3be 0a85 52be
00000030: b5ad 53be bfa6 c1be c47b 1fbe ecbb 88be
00000040: d00e 2abe 4f0a 74be d939 35be 646d 12be
00000050: f96a 40bc 3f73 533d 7917 463c 082a b9bd
00000060: a99f fbbc 8c46 133e 6f9c b73d e80d 443d
00000070: 3e09 0d3e b5da d63d 4c0e dbbc 67ee f93d
00000080: a6b5 973d b256 fc3d 02bf 86bb e9b7 67bd
00000090: 2409 e33d ff3b 3a3e 9e07 723d 09f5 93bd
000000a0: 188c 08be 7872 92bd 303f 453d 1e5c b43d
000000b0: 8f7e 6abd 24ff bd3d da1f 843d 1cc5 42bd
000000c0: e52a 8dbd 21de bebb 10a4 133e a38e 6b3e
000000d0: f452 a23e 07a4 113e 5897 e43c 5bc6 953e
000000e0: d873 bc3e 9ecb 7f3e 556a 5f3e 882c f23d
000000f0: 974f 6f3e a9a1 a73e 67ff 283e f4a5 733e
00000100: fa14 693a 0e69 b13d 27b4 7f3d 6675 003e
00000110: dff7 1d3e 70a9 00bd 2893 153e 899b 5e3e
00000120: bf9c 1b3e c215 40ba 32da 6ebd e1a4 6c3c
00000130: 3678 33bd 64c3 fbbc 93c9 20be 21ef 4c3d
00000140: c424 a93e f3d4 413e b088 aabe cf35 eebe
00000150: 70f5 abbd 5b33 113e 9b0d 74bd 041c 69be
00000160: 46d2 2dbe 7222 7dbe 4cf2 2cbe ffb3 33be
00000170: 1ee6 343e 9f89 883d 536a 43be a5f0 e9bd
00000180: e633 91bb 48e3 7c3e 199d c93e 0fde 083e
00000190: bb2e 80bb 1053 ef3d 46ed 83be b973 e5bd
000001a0: 8c31 d43c 321f d33e abf4 1b3e ce67 7ebe
000001b0: 3534 babe 78d7 38be 5a66 3e3e 4bc3 8f3b
000001c0: 186f 54bd 1702 8abe be1d e7bd 543b dfbd
000001d0: ba33 a7bd 4de8 e23d 91f4 153e e1ce 06bd
000001e0: e4f5 7d3d 62de 2a3c fe2b 803e d798 d33e
000001f0: 09df 8e3e 44eb 4c3e 98b0 9c3d 4cf6 f4bd
00000200: 3f71 80be b66e 41bd 227e a13e 98f2 683e
00000210: 37f7 23be ce01 cebe b7cb 0abe 616e 913e
00000220: ee89 283e 4d71 9a3c bafc 89be 93f9 80be
00000230: c7d1 91bd c820 50bd 56dd f03d 863b 273d
00000240: bc8f 16be c75a 36bd 6209 45bd 9c7f 613e
00000250: 1628 8b3e 906a 073e cfef 973d 48e4 1e3e
00000260: 4adc d03d 70a5 433c 6511 96bd d020 933e
00000270: caf4 173f abb9 253f 7507 ba3e b276 ab3e
00000280: a489 cc3d e1d0 d33e 1faf f13e 8cc3 963e
00000290: a10c 6e3e 040d 4fbe 2e5e 68be 8048 e9be
000002a0: c0fe a2be b7a4 7dbe 77e1 bfbe ee4e 9ebe
000002b0: b5f5 95be 6533 96be d277 93be ebca 0fbe
000002c0: df8e 97be f2b3 94be 6bcf 60be e2c0 b3bc
000002d0: aaa1 e4bd fb7e 863d 8df8 483e 6b98 943e
000002e0: 3028 c83d 1e29 323d 2e16 2f3e 84cd 823e
000002f0: 4fb8 803e 27f9 1fbd 435f 57be 6283 b7be
00000300: 9360 efbe 482b a8be 693e aebe fab9 1c3c
00000310: d0d7 66bd ee20 7abe 17fe 45bc 3059 3cbd
00000320: 0df1 3c3c d0ec a3be d7df b2be c46b 38be
00000330: 5d38 37bd 3282 1d3e 3255 dd3d e08d dc3d
00000340: 0bf8 783e 2464 1b3e 3133 673c 9692 e63d
00000350: cfb7 a43e 5aef a33e f201 863d 51c9 bdbd
00000360: 3db8 cf3c 7cce 20be a682 0dbe bbf4 343c
00000370: 5bc1 f03d bf4a c93d 26d0 913d 0c22 3b3e
00000380: ed7c 483e 90c2 a9bd 8435 24bd f83a 77be
00000390: 9436 10be 3ad1 fbbc 7657 23be b544 ca3d
000003a0: 8e6f eabd cd2a 95be 3cb6 cbbd cad6 a3be
000003b0: b098 803e 0a25 403e 68ba d6be d6d6 87bd
000003c0: 8709 a1bd 56fe 95bd 6428 80bd 7f43 903e
000003d0: 0cfb 70bd 7c70 543d d6a8 85be 5c60 cfbe
000003e0: 30e5 91bd 022a 213e e9da 033e e366 873e
000003f0: 11cb fd3d 6d83 3f3e de34 063e c53b c83d
-0.062478952 -0.07193248 -0.043225385 -0.020489544 -0.18655694 -0.3193484 -0.09897717 -0.045412585
-0.30450162 -0.19151984 -0.38266492 -0.20558563 -0.20671733 -0.3782253 -0.15574557 -0.26705873
-0.16607213 -0.23832057 -0.17697848 -0.14299542 -0.011744254 0.05162358 0.012090557 -0.0904122
-0.03071578 0.1438238 0.08965384 0.047864825 0.13773057 0.10490934 -0.026740216 0.12203675
0.074076936 0.12321223 -0.0041121254 -0.056571875 0.11085728 0.18186949 0.059089296 -0.07224471
-0.13334692 -0.071507394 0.048155963 0.088066325 -0.057249602 0.0927718 0.06451388 -0.04755126
-0.06892947 -0.0058248197 0.14418054 0.2300363 0.31703913 0.14222728 0.027904198 0.29252896
0.36807132 0.24980018 0.21817906 0.118249 0.23370205 0.32740524 0.16503678 0.23793775
0.00088913704 0.08662616 0.062427666 0.12544784 0.15426587 -0.03141159 0.14606917 0.2173902
0.15196513 -0.0007327461 -0.058313556 0.014443607 -0.043815814 -0.030732818 -0.15701894 0.05003274
0.33035862 0.1892889 -0.3330741 -0.46525428 -0.08396423 0.14179747 -0.059583288 -0.22764593
-0.16974744 -0.24720171 -0.16889304 -0.17549132 0.17665908 0.06666874 -0.19083528 -0.114228524
-0.0044312356 0.24696076 0.39377668 0.13365959 -0.0039118207 0.11685765 -0.25766963 -0.11203713
0.025902532 0.41234738 0.15230052 -0.24844286 -0.36367956 -0.18050945 0.18593732 0.0043872944
-0.05186376 -0.2695472 -0.1128497 -0.10899988 -0.08164163 0.11079464 0.14644076 -0.03291214
0.062002078 0.010428997 0.25033563 0.41327545 0.27904537 0.20011622 0.0765087 -0.1196104
-0.250864 -0.047224723 0.31541544 0.22748792 -0.16012274 -0.40235752 -0.13554274 0.28404525
0.16458866 0.018852854 -0.26950628 -0.2519041 -0.0712009 -0.050812513 0.117609665 0.04082825
-0.14703268 -0.044520166 -0.04810465 0.22021335 0.2717902 0.13224244 0.07418787 0.1551677
0.10198267 0.011941299 -0.073275365 0.2873597 0.59357893 0.6473643 0.36333814 0.33488995
0.0998719 0.413703 0.4720392 0.29446065 0.23247005 -0.20219809 -0.22692177 -0.45563126
-0.31834984 -0.24769865 -0.37476704 -0.30919594 -0.29289022 -0.29336086 -0.28802353 -0.14042251
-0.2960119 -0.29043537 -0.21954124 -0.02194256 -0.111636475 0.06567188 0.19626065 0.29022536
0.0977329 0.043496244 0.17098305 0.2554742 0.25140616 -0.03905597 -0.21032433 -0.35842425
-0.46753368 -0.3284552 -0.3403199 0.009565825 -0.05635816 -0.24426624 -0.0120845055 -0.045983493
0.01153208 -0.3201661 -0.349364 -0.1800986 -0.044731487 0.15381697 0.10807265 0.10769248
0.24313371 0.1517492 0.014111326 0.11258428 0.32171485 0.32018548 0.0654334 -0.09266914
0.025356406 -0.15703768 -0.1381937 0.011044676 0.1175563 0.0982871 0.07119779 0.18274707
0.19578905 -0.08289063 -0.0400901 -0.24143589 -0.1408332 -0.030739415 -0.15951332 0.09876386
-0.114470586 -0.29134217 -0.09946868 -0.3199981 0.2511649 0.1876413 -0.41939092 -0.066327736
-0.07863145 -0.07323901 -0.06257704 0.28176495 -0.058833167 0.051865086 -0.26105374 -0.40503204
-0.07123792 0.15738681 0.12876476 0.26445684 0.123922475 0.18702479 0.13106105 0.09777025

conv1.bias f4 [6]
00000000: 7bf8 d43e ccdb 07be db8b 15bf 312e e1bb
00000010: 9796 93be df58 6abe
0.41595826 -0.1326744 -0.5841653 -0.0068719615 -0.28825828 -0.22885464

conv2.weight f4 [16, 6, 5, 5]
00000000: eb8e 8fbe 3e92 5dbe 5d61 c7bd 48f0 87bc
00000010: c38c 293e d0d0 0ebe 9686 40bd 76e4 cabd
00000020: 3bd4 a1bc 548e 6b3e fe41 62be c3c3 03be
00000030: 555b 65bd 30de 033c 0e70 823d 7b32 3bbe
00000040: 2691 5ebd e75a b9bd 8a00 0abe 8832 d93b
00000050: 233a 6abe 2906 82be eb46 31be 82cf 0abe
00000060: 42c3 afbd cda3 25bd 55ed db3c 39f8 483e
00000070: 5ac9 8e3c 1f0a da3d 5b0f a8bd b3ce bb3d
00000080: fce3 e6bc 0e9f 3e3e 2c94 76bc f5fb a9bc
00000090: d4b8 803d bc77 b03d 5af9 4e3d 4b31 f2bd
000000a0: b9a7 3abc e0e1 95ba 39f0 873d 8ba9 0ebd
000000b0: 6eca d83d 11fc 44be 0d42 113d c866 27be
000000c0: e245 b53c d288 a3bd 80c0 9abd eba3 053d
000000d0: 4c3b 37bc d2ac b33d 20f5 403d a001 d2bd
000000e0: fb7b e0bd 0d0b 893d e31b 13bd 8e09 c73d
000000f0: 9bd8 debc daa1 7fbd 8fa0 07bc e858 71bc
00000100: 360b d93d 921f c2bd b7e0 18be fb46 30be
00000110: f83c 5bbe 1d01 4bbe 5231 babd 6281 15be
00000120: bc70 a4bd 2ca1 41be 5d82 f0bd 1d4b 79bd
00000130: 2290 5bbe bb90 80be 5598 51be b7b3 afbd
00000140: b659 78bd 5e71 c8bc e8a7 56bd 4dcb 1cbe
00000150: 6a8c c6bd 1579 5ebc 0933 73bd e81f 1a3d
00000160: 0246 23bd e06e 56bd 285e 863b e6d4 2d3d
00000170: 052c 623b 1c85 b43d ca07 ff3c d8d6 a63d
00000180: 200e 383e cef4 e23d 917a 5e3e 2d5a e73d
00000190: c296 c9bc ef37 38bd a58f 043d c421 b2bd
000001a0: c11e 443d 5d76 7ebe a56e ec3c 1085 adbc
000001b0: 5647 a9bd c7bc c5bd 0b63 2ebe 3487 53bd
000001c0: 1905 38bb 1d4f 4fbe 1f3f 05be c843 88bd
000001d0: 02c7 873d 0797 84bd ddf2 d1bd 2a84 ccbb
000001e0: 26ca a5bd 93c1 d53c 68a2 81bd 08ef febd
000001f0: 109d 0cbe 5fde 17bd b460 043e 62db a43d
00000200: 0606 003e dc28 013d 46a2 48bc ace9 903e
00000210: f0cb ae3d ef2b 573d 4a61 8ebd 515d 2f3e
00000220: e506 ed39 26ce 523e 9f11 85bd bc6d 7dbc
00000230: e8d5 413e 0ca1 ac3c cabc 7d3d 031a e4bd
00000240: a5f1 fc3d c136 843c ac1f 9b3d 96a8 613d
00000250: 18a5 c13b bbc1 ce3d 3950 e83d 11b7 a63c
00000260: bb2d b73c 2602 d43c 0c0a 233c b1ad 4dbd
00000270: a1a0 cebd 6e43 5cbb 0b28 f53b 45f4 253d
00000280: 8dbd d2bd e8fd c5bd e223 8fbd 5719 cfbd
00000290: 2acf e1bc 64fa e73d 61bf 37bc b4fa 42bd
000002a0: edcb 2d3d 8ae7 ad3c 2486 563e 052b ff3d
000002b0: d30f 583d 07a2 e83d b322 453e 60e0 27be
000002c0: 0222 14be 5fa8 37be bd4d 7cbe 8966 73be
000002d0: 60b2 1a3c 26c8 31bd facb a9bc 0a6e 4bbd
000002e0: ac0f 40bd 1e5b b3bd 1f76 25bd c7dd 743c
000002f0: 25fd 7b3d c247 233d 7fe3 99bb 9e0f adbd
00000300: 725f c0bd ca51 79bd 9f3e 0a3d 9364 ae3d
00000310: 7eb4 0fbe 016f 99bd 70cd 06be b763 e4bb
00000320: 3550 91bd 2881 f0bc f831 92bb f7a7 d33d
00000330: 11b7 603d 90c4 523d 2028 653d a9cc d4bc
00000340: d20e 1b3d 7706 423d b55c 103e bc54 8f3d
00000350: e02b 3c3d f3b4 e73d fac9 afbb 51bb 5b3d
00000360: fcb5 493d e418 a03c f09d 01bd 1346 9d3c
00000370: b210 95bb 9dc6 e93c e3ee 613d a34f e43d
00000380: 70f4 d23d 01cd c9bd 4ca3 b9bd 9e05 dbbd
00000390: 8dc6 9e3c 0605 c4bd 6d83 363d 306f 0c39
000003a0: b5d8 e9bd 22ed b3bd fde1 02be fde7 3d3d
000003b0: e3ae dc3d 3493 6c3d 6348 aa3c 81ee 07bd
000003c0: faec 9b3c f27f 1e3d 25f2 183e c9d0 283e
000003d0: 3b1b e73c 3bfc 2f3d e2eb 6e3e 6263 4a3e
000003e0: 788c 823d 3a00 dfbc 92ca e5bd e501 e5bc
000003f0: ae8b 9cbd 4ce4 053d 5130 b1bc e104 523d
-0.28038725 -0.21637818 -0.097353674 -0.016594067 0.16557603 -0.13946843 -0.04700335 -0.09906857
-0.01975452 0.23003513 -0.22095487 -0.12867646 -0.055995304 0.008048579 0.06369029 -0.18280976
-0.054337643 -0.09050541 -0.13476768 0.0066283382 -0.2287374 -0.25395325 -0.1731221 -0.1355572
-0.08582164 -0.040439416 0.026846567 0.1962594 0.017429996 0.10646462 -0.08206054 0.09170284
-0.028184883 0.18615362 -0.015049975 -0.020750025 0.06285253 0.086165875 0.05053077 -0.11825808
-0.011392527 -0.0011435114 0.06637616 -0.034829658 0.105854854 -0.1923678 0.03546338 -0.16347802
0.02212805 -0.07985081 -0.07556248 0.032627027 -0.011183571 0.08773197 0.04710877 -0.10254216
-0.109611474 0.06691561 -0.035915267 0.09718619 -0.027202895 -0.062410213 -0.008278026 -0.01473067
0.105978414 -0.09478678 -0.14929472 -0.17214577 -0.21409976 -0.19824643 -0.09091438 -0.14600137
-0.08029315 -0.18909138 -0.11743615 -0.06086265 -0.21441701 -0.2511042 -0.20468266 -0.085792
-0.06063243 -0.02446812 -0.05240622 -0.15311928 -0.096947506 -0.013578673 -0.059374843 0.037628084
-0.039861687 -0.052351832 0.00410058 0.042439364 0.00345111 0.08814451 0.031131644 0.08146447
0.17974138 0.11081849 0.21726443 0.112964965 -0.02460802 -0.044975217 0.032363553 -0.086978465
0.04788089 -0.2484984 0.028861353 -0.021181613 -0.082655594 -0.09655147 -0.1702997 -0.05164261
-0.002807921 -0.20245023 -0.1301236 -0.06653553 0.066297546 -0.06474119 -0.102514006 -0.006241341
-0.080951974 0.02609328 -0.06329805 -0.12447935 -0.1373179 -0.037077304 0.12927514 0.080496565
0.12502298 0.031533107 -0.01224572 0.28303277 0.08534992 0.052532133 -0.0695215 0.17125441
0.000452093 0.20586452 -0.064975016 -0.015468057 0.18929255 0.021072887 0.06194762 -0.11137774
0.123507775 0.01613939 0.075744 0.055092417 0.0059095733 0.10095545 0.11343426 0.020350965
0.022360673 0.02587993 0.009951126 -0.050214473 -0.10089231 -0.0033609527 0.00748158 0.040516157
-0.1029006 -0.096675694 -0.06989266 -0.10112255 -0.027564604 0.11327055 -0.011215062 -0.04760237
0.042430807 0.02122857 0.20949608 0.12459377 0.052749466 0.11359029 0.19251518 -0.16394186
-0.14466098 -0.17935322 -0.2463903 -0.23769583 0.009441942 -0.043403767 -0.020727146 -0.04966549
-0.046889946 -0.087576136 -0.040395852 0.014945454 0.061520714 0.039863355 -0.004696309 -0.08450244
-0.09393205 -0.060869016 0.033751126 0.08515277 -0.14033696 -0.074918754 -0.13164306 -0.0069698947
-0.070953764 -0.029358461 -0.004461523 0.10334771 0.054862086 0.051456988 0.05594647 -0.025976496
0.03785593 0.047369447 0.14097865 0.06998584 0.04594028 0.1131381 -0.0053646537 0.053645436
0.04924582 0.019543119 -0.03164476 0.019198453 -0.0045491094 0.028537089 0.05515946 0.11148002
0.10300529 -0.098535545 -0.090643495 -0.10694431 0.019381786 -0.09571271 0.04455893 0.00013392861
-0.11418287 -0.08785464 -0.1278152 0.04636382 0.107755445 0.05775757 0.02078647 -0.03318644
0.019033898 0.038696237 0.14936121 0.16485895 0.028211227 0.042965155 0.2333217 0.19764474
0.063744485 -0.027221788 -0.11220278 -0.027955005 -0.07643829 0.032688424 -0.021629484 0.051274184

conv2.bias f4 [16]
00000000: 4ef5 743f b4a6 673f e339 cebe 045a b43d
00000010: fbb8 04bf eb40 24be 1695 7a3d ca55 893e
00000020: d0ae 1e3d 2bd2 04be ffee cabe 69ae 9fbe
00000030: ecc9 20bf f014 023e 3b41 b03e 3660 a6bd
0.95686805 0.90488744 -0.4027854 0.088062316 -0.5184476 -0.16040389 0.061177336 0.26823264
0.038740933 -0.12970798 -0.39635465 -0.31187752 -0.6280811 0.127033 0.34424767 -0.081238195

fc1.weight f4 [120, 400]
00000000: 08bb b63b 8c54 913d e339 423b c4d8 583d
00000010: c84d 873d 84db 18bb 90f7 6c3c c2db b43b
00000020: a065 4c3d 9d5b 3dbd 4007 f33c 0f49 113d
00000030: 4927 a63c af38 8cbc 38cb 7ebc a3cf 1d3d
00000040: 51e5 ecbc b599 603c 2987 af3c ff7a 04bc
00000050: 99e0 e93a bf0e 013d bb6a b2bc dcbf a43d
00000060: 55ee ed3d 2870 883c c67c 85bd af31 74bc
00000070: 7f81 81bc 2e43 ce3a 70af 37bd 17a0 44bd
00000080: bf5b 3b3d 61ae 373c b162 f8bb 9a4e ec3c
00000090: 82c5 28bd c4c6 e2bc 462a 803d 4b3a a9bc
000000a0: a0ef 013d 1851 efbc 5e51 223d 7138 babc
000000b0: 61de 8c3c 41fd 8b3c ce4c f43c c0a1 1fbd
000000c0: 30fe f1bb f92c c2bc ba3b 54bd bdb3 76bc
000000d0: 2f4b ccbc 6a88 dbbc 2f74 03bd 4001 9b3c
000000e0: f298 60bd f85a 1a3d 16ac 1bbd e91a 03bd
000000f0: 55de 1a3c 7a62 293c 33fd de3c 5e78 08bd
00000100: cfba 8dbd a25b 01bd 6a81 cb3b 4293 71bd
00000110: 889b 98bd 2f6d a0bd d61d 9abd 8691 ee3c
00000120: af4f 783c 1834 64bc a7fe c7bd df7c 1abd
00000130: e257 12bd e8dc 26bd 9fa1 f23c f191 61bd
00000140: 0a70 14bd fc53 273b c5b3 2e3c 8751 33bc
00000150: 24fb 16bd b87a 243d e37a bbbc fd16 a9bc
00000160: c204 58bc 069a a53b 21ad e63b 59e8 94ba
00000170: 3b2f b43c ba17 f93a b860 ac3c fed9 47bd
00000180: bc9c 1fbd 09e1 923c 258e 45bb 32f5 6f3c
00000190: 0a06 30bd 1226 0ebd c11d 91bd 9feb 7ebc
000001a0: a7f0 c63c 1c36 79bd 51c8 75bd 8474 53bd
000001b0: 4b27 88bc 22e0 a7bc 8a05 78bd 6549 a0bd
000001c0: 4402 88bd 277e d63b 4e2c f2bc 414c b0bd
000001d0: e01c 89bd ec5d febb 8bc9 703b d5f4 6b3d
000001e0: d830 0b3c 18c1 83bc 63b4 0ebd fb61 ed3c
000001f0: 6bff 823b 5f0e 3f3c 5a63 363c 4376 1f3c
00000200: d63b f03c 246d 28bc 65d7 363d f0f2 e93c
00000210: a052 063d fe0c 293d 0c7d 86bd 914d a0bc
00000220: b891 02bd 2dd3 16bd 0ede 20bd 8cac 6d3d
00000230: dfa2 70bd 9ba7 3c3d cf90 113d 9232 b7bc
00000240: 2234 82bc 2ae5 26bd cd70 3cbc 235f a03c
00000250: e82e 66bd 33e0 0abd b276 72bc e969 1ebd
00000260: dec2 22bd a314 6cbc 4357 10bd b98e 073d
00000270: 5218 7bbd bf68 b73c 9dc5 0abd f050 24bc
00000280: 3283 ff3c bc7e fd3c 8076 513d 8d56 273d
00000290: cf51 57bc 1f8e 673c ef77 073b 8d79 10bc
000002a0: 455d 5c3d de2c 2d3d 5ea1 bd3b 67a7 2fbd
000002b0: bb33 6d3c e88f 7dbd ab70 98bb b21d 6d3c
000002c0: 647c 963d 3f68 a93d 6e13 1b3d 9678 033d
000002d0: 0f54 ae3c 99df 623d 660f 523d 25e9 213d
000002e0: bb9c 923b 7bee 5fbc 1eb5 1d3d 79b5 643d
000002f0: 88a5 bf3b ce7c 92bd f13a 8a3d debe 093d
00000300: 7d5d 4cbb c850 9cbc e00f a6bc 7bfb b93c
00000310: b60b 7b3d f255 31bd ee63 96bc b7d6 7bbc
00000320: b41c 8dbd 00b1 8abd cf67 28bd 725e 59bd
00000330: 197f 5a3c c93e 35bd d8ec 6fbd 64bd 22bd
00000340: 17a9 fb3b 0ed8 0c3c 995e b0bc 593f e13c
00000350: 3653 323d 7fe5 5f3a 6833 a6bd 8ed8 213c
00000360: a4f6 af3c 5999 2bbc a5e6 18bd 5e89 b63c
00000370: 4886 aabb e5d8 c83c 18fb acbd 97db 37bd
00000380: b38d 8fbc abe4 15bd ebd5 e2bc 71b0 97bc
00000390: 8bf7 f3bc e80c 51bd 5190 013d 30a8 183c
000003a0: fd8f 5a3d e584 21bd 4e5c 2b3b ab12 74ba
000003b0: 8ccf 8abc 4e0d 9e3a 2564 e4bc 06ad a53c
000003c0: b8c3 81bc ed12 6b3c b2ed 2cbb a91b 44bd
000003d0: ea70 4ebd a32a 093b e6df 92bd e8e7 3abd
000003e0: 3177 eabc 90dc e03c 8892 aabb 29d1 303b
000003f0: 0448 53bd 63bb 95bd 4b8a 613c 90a3 1ebd
0.005576495 0.07096204 0.0029636554 0.0529411 0.066066325 -0.00233242 0.01446332 0.0055193612
0.049901605 -0.046229947 0.029666543 0.035470065 0.020282404 -0.017116873 -0.015551381 0.038528096
-0.02891794 0.013708522 0.021426754 -0.008085965 0.0017843425 0.031508204 -0.021779409 0.08044407
0.11617724 0.016655043 -0.06517939 -0.014904424 -0.015808819 0.0015736574 -0.044845045 -0.048004236
0.045741793 0.011211009 -0.0075801243 0.028846074 -0.041203983 -0.02768267 0.06258063 -0.020657679
0.031722665 -0.029213473 0.03962838 -0.022731991 0.017195882 0.017088534 0.02982178 -0.038972616
-0.007385038 -0.023703085 -0.051814772 -0.015057501 -0.024938194 -0.026798446 -0.032093223 0.018921494
-0.05483336 0.03768441 -0.03800591 -0.032008085 0.009452422 0.01033842 0.027220344 -0.033317916
-0.069203965 -0.03158153 0.0062104957 -0.058978327 -0.0745154 -0.07833325 -0.07525222 0.029122125
0.015155717 -0.013928436 -0.09765368 -0.037716743 -0.035728343 -0.040738016 0.029618083 -0.05507082
-0.03623966 0.0025532236 0.010662978 -0.010944731 -0.0368606 0.040156096 -0.022885745 -0.020640844
-0.013184728 0.0050537614 0.0070396815 -0.0011360749 0.021995177 0.0019004263 0.021042213 -0.048791878
-0.038967833 0.01792957 -0.003014454 0.014645861 -0.04297451 -0.034704275 -0.07085753 -0.015559106
0.024284674 -0.06084262 -0.06000549 -0.05162479 -0.016620299 -0.020492617 -0.060552157 -0.07826499
-0.06641057 0.0065458003 -0.029562142 -0.08608294 -0.066949606 -0.007762661 0.0036741223 0.057606537
0.008495532 -0.016083285 -0.03484 0.028977385 0.0039977334 0.011661141 0.011132086 0.009732786
0.029325407 -0.010279927 0.04463901 0.028558224 0.03279364 0.041272156 -0.065668195 -0.019568237
-0.03187725 -0.036822487 -0.039274268 0.05802588 -0.058749076 0.04605828 0.03553849 -0.022362981
-0.015894 -0.04074589 -0.011501503 0.019576615 -0.056197077 -0.03390522 -0.014798807 -0.038675223
-0.03973662 -0.014409217 -0.03523947 0.033095095 -0.06130249 0.022388814 -0.033879865 -0.010029063
0.031190488 0.03094422 0.0511384 0.040854026 -0.013142063 0.014133005 0.0020670851 -0.008818042
0.053799886 0.042279117 0.0057870587 -0.042884257 0.014477666 -0.061904818 -0.004652103 0.014472412
0.073479444 0.082718365 0.037860326 0.03209742 0.021280317 0.05538902 0.051284216 0.039528985
0.00447425 -0.013667698 0.038502805 0.05583713 0.0058485903 -0.07152711 0.067495234 0.03362929
-0.0031183653 -0.019081488 -0.020271242 0.022702923 0.061290465 -0.043294854 -0.018358197 -0.015371016
-0.0689024 -0.06772041 -0.041114625 -0.053068586 0.0133359665 -0.04424933 -0.05857548 -0.0397314
0.007680069 0.008596433 -0.021529483 0.027496027 0.043536387 0.00085409725 -0.08115274 0.009878291
0.021479912 -0.010473573 -0.037329335 0.022282299 -0.005203996 0.024517486 -0.0844633 -0.04488715
-0.017523622 -0.036595028 -0.027689895 -0.018516751 -0.029781124 -0.0510377 0.03163177 0.009317443
0.053359974 -0.03943338 0.0026147547 -0.0009310643 -0.01694467 0.0012058408 -0.027879784 0.020224106
-0.015840396 0.014347774 -0.0026386795 -0.04787794 -0.050400652 0.0020929954 -0.071716115 -0.04563132
-0.028621288 0.027448922 -0.005205456 0.0026980138 -0.05158235 -0.07311132 0.013765882 -0.038730204

fc1.bias f4 [120]
00000000: 6bdd 0b3e a015 c23d 5ee9 743d 8093 55bd
00000010: 1077 edbc 0e6e d03d 52da 263d 64bf 96bc
00000020: 1b5a 0abd b6d9 ba3b 5a96 d5bc 129c d7bc
00000030: fa99 21bd f2e8 e1b8 41c4 9c3d e0ba 9e3d
00000040: 9274 ab3c 1bed d6bc 1874 663c 2bcb 873c
00000050: 9b05 abbc f870 aa3d 7bd4 f3bb ed0d d6bd
00000060: ab23 ca3c 8a7d 29bd ef16 ffbd e2cd 163d
00000070: 6ea7 1e3e 86ba cf3d 5a8c ce3c 8e44 2a3a
00000080: 9c54 d83d 3d89 27bd ce39 c33d 1d34 e53d
00000090: 8b84 f6bb a362 b23c 37b9 e53c 7342 d83d
000000a0: b3d4 0f3c cafd 30bd 0855 08be f68e 3e3c
000000b0: f9bf 0b3e db31 b23d 38f0 ac3d bbde 1d3e
000000c0: 3e9b a1bd eb97 66bd f86e 413e 426b 283c
000000d0: fdbd ed3d 79d5 8d3d c802 343b 60a9 253d
000000e0: a718 f53d a9e6 613e 93ab 3bbd 5dd8 953d
000000f0: 4f4d ac3d 835a e3bb 7657 3f3e a871 aabd
00000100: 2106 3cbc 039f 983d db19 24be bc2f 29bd
00000110: cc68 96bd 7e73 b93d 1361 153e 9edc 4fbb
00000120: 9199 933e 4168 a73d d7fd 423d 4d36 e73d
00000130: 6015 0abd b528 be3d 836e 573d c95a 2bbd
00000140: 79b3 e0bc 4d77 7cbd fb39 023e 55e6 b73b
00000150: 485a 333d 5ecd 223e a3ec fbbc 98bc 453d
00000160: 1a5e 49bc 4d11 ef3b 9061 32bd 558f a3bc
00000170: b2dd 85bc dea6 c73b 299f 303d 9823 8abb
00000180: 69b0 82bd 63e7 f53d fcd5 0fbd 18f3 543e
00000190: d47b 0f3d aec6 b23d dd49 4cbd ce67 13bd
000001a0: 92c5 3dbd 0602 d43d 1c28 403d d6de e3bc
000001b0: ec36 f63b ca99 0f3e e99f bf3d 8a33 773d
000001c0: b634 c13c ed31 75bb 3765 47bb 3c29 59bd
000001d0: 9472 52bc 9ce1 92bd 831e 2abd d88d 08be
0.13658683 0.09476781 0.05979287 -0.05214262 -0.028987437 0.10177241 0.04073555 -0.018401809
-0.033777338 0.0057022227 -0.02607267 -0.026319537 -0.039453484 -0.000107722255 0.0765462 0.07750487
0.020929608 -0.026236108 0.014065765 0.01657637 -0.020876696 0.08322328 -0.007441101 -0.10451875
0.024675211 -0.04137949 -0.12455546 0.03681744 0.15493557 0.101429984 0.02521341 0.0006495201
0.10563013 -0.040902365 0.0953251 0.111915804 -0.0075231246 0.02177555 0.028042419 0.10559549
0.008778739 -0.043210782 -0.13313687 0.011630764 0.1364745 0.087009154 0.084442556 0.15416996
-0.07890938 -0.056297224 0.18889987 0.0102794785 0.11608503 0.06925482 0.0027467478 0.04044473
0.11967593 0.22060646 -0.045817923 0.07316659 0.08413183 -0.00693828 0.18685707 -0.083224595
-0.011476071 0.07452204 -0.16025488 -0.04130529 -0.07344207 0.090552315 0.14587812 -0.0031717191
0.288281 0.08174182 0.04760536 0.11289654 -0.03371179 0.09285108 0.052595627 -0.041834626
-0.02742933 -0.06163721 0.1271743 0.0056121745 0.04378727 0.15898654 -0.030752486 0.04827556
-0.012290502 0.0072957636 -0.043550074 -0.019965807 -0.016341064 0.00609289 0.043120537 -0.004215669
-0.06381304 0.12007024 -0.03511618 0.20795858 0.0350302 0.087293014 -0.04987513 -0.035987668
-0.046330996 0.103519484 0.04691325 -0.027816217 0.0075138714 0.1402351 0.09356672 0.060351886
0.023584705 -0.0037413791 -0.003042532 -0.05301784 -0.0128447 -0.07171938 -0.041533004 -0.13335359

fc2.weight f4 [84, 120]
00000000: 7a72 8cbd 5c8f ba3d cc26 0dbc adb4 053d
00000010: adfb 0fbc 22c3 a9bd 58c2 773d 6a05 6fbb
00000020: 460b 0fbc d721 b7bd c231 c83d a87c 37bd
00000030: f2bc 233d db74 973d f037 bebc 0186 82bd
00000040: 8e21 91bd 9b39 d3bd 761c 1b3c 9e71 903d
00000050: 5417 ccbc a24c 9cbc f7c1 4c3d d855 9d3c
00000060: 107a adbd 1ea3 ac3d acf0 70bd 750d 5ebd
00000070: 6db9 ae3c 2b29 413d b16a 363d 0359 8ebb
00000080: 76f8 81bd fa93 e2b8 ae5a 03bd 54ec 78bd
00000090: 6cd3 b83d a78a 213d 8373 99bd f18f 35bd
000000a0: e483 e43d 33b9 82bb 4d4b a2bd b7bd 713d
000000b0: 9e73 a0bd 4d12 18bd 428a 023d b8e8 8d3d
000000c0: 4857 3bbd 1af1 04bd 0401 133e b027 373d
000000d0: 365b 71bb b8b8 e03c cee7 6f3d 0789 98bd
000000e0: 59ae 2bbc 845d 36bd 8879 b43d ee0d df3c
000000f0: 09b7 edbc f8f9 953d 58d2 82bd 429d d0bc
00000100: 4b86 173d a301 3dbd e950 5ebd bf54 73bd
00000110: e0c2 163d fe0c 643c 8092 ac3d b79b 803d
00000120: e527 42bd 6bc8 36bd dd84 6c3d b1af 8f3d
00000130: 8d65 163d b69b f23b 7f08 d53c 2193 043d
00000140: 5fb8 c4bd 825c 8e3d 4b05 6a3d 45c5 51bd
00000150: 57b8 edbc 68ac 34bc 2291 203d 393a 95bd
00000160: 1086 91bb 918d 4bbd 5a59 de3c 8400 aabd
00000170: 3e89 333d faa5 bcbc 99d7 a3bd d26a b43b
00000180: 84f4 123d d958 9cbd b81d 91bc fa26 ff3c
00000190: 893f c13b 74d7 bf3c a6c5 a13d 4ae7 b5bd
000001a0: 37f0 643d 34cb 993d 5b8c 123d 5587 223d
000001b0: 56f8 a1bd ddf1 07bd 67f8 aa3d d524 ec3c
000001c0: 2134 393d b97b 90bc f069 9a3d 8ac9 fe3b
000001d0: af5b 0d3d 6740 41bd 1596 7a3d 4fdb b53d
000001e0: de76 4ebd b91e 813c d13f 31bd fa01 39be
000001f0: b7a0 883b 510c 95bc 141f 28bc 7c80 463c
00000200: 9a9b 453d 3fed 7fbd 4d0d 9c3d daa0 5b3c
00000210: aba3 e0bc be4e 24bd f6e4 a53c a8f2 a7bb
00000220: 5baa 8c3d cf8c 2abe 79e1 90bd 47d7 afbd
00000230: c75b c3bd d531 dc3d c4af 2c3d e935 31be
00000240: 3d20 ae3c 48b7 403c 0390 03be bf1a 99bd
00000250: ea1b 0cbc 9048 233c af07 8fbd 9e79 e0bd
00000260: b56a 25ba a0d4 953d e09b 953d 32f8 9d3d
00000270: b849 c3bd dfde 74bd dee9 8a3d c0f6 713a
00000280: 89ee 99bd 7a85 523d e1ee a03d d82a e9bc
00000290: bf0e b83d d8d1 b23d 92dc 34bd 6523 9a3d
000002a0: ad31 73bb 4a4a 2abd 31c2 d53d a953 86bd
000002b0: 9a0b be3c 49df 553d 3b9e 31bd 6c52 7dbd
000002c0: 762f d63d 30be 273d 70ff 443c 1edb 5bbb
000002d0: 00bf 913d 6ab1 193c 3932 f0bc cde6 64bd
000002e0: 41fb 4d3d 5c36 3f3d dcb4 4ebd 4736 fc3c
000002f0: 4f87 de3d 4126 80bd 7a55 c13d efa2 0bbd
00000300: c889 673d dd0b c03a e110 88bb 6309 7fbc
00000310: ddff 29bd d7ed d9bc bf48 19bd 2a8f bdbc
00000320: abd4 35bd c98b c9bd 771c dd3d 36ac 9bbd
00000330: 85ac ae3d a694 32bd 881a b0bd b6b3 0ebe
00000340: 5762 253d 92b0 3f3d 4c07 673d 6ce9 b73d
00000350: 8ef6 84bd 5785 e5ba 85a9 d5bc d19b a23d
00000360: e14c f8bc d680 a33c b90f bf3d 765f 87bc
00000370: 9dae c7bc 8786 263e 5de5 53bc 6d5f 563b
00000380: adca b9bc 64bf 663d 4af0 abbd d809 0a3d
00000390: 5f20 963d 336c 423d 80d8 393c a95b c0bd
000003a0: fe83 0dbd c690 f2bd 6df0 a43d 99b5 a5bd
000003b0: de91 6bbd 1573 05bd ad37 42bc 6232 a83d
000003c0: 35b9 ea3c 3e7c 21bd aa90 4d3d 0371 c03a
000003d0: 537c fdba 56f7 283d 3ce3 d63d a540 cabd
000003e0: d352 303d f2a9 0f3d a208 573d 32f6 28bc
000003f0: 477f 983d b814 debd e6f0 f13c 5e7f 173b
-0.06857772 0.09109375 -0.008615207 0.03264301 -0.0087880315 -0.08289172 0.060488075 -0.0036471733
-0.008730715 -0.08942001 0.097751155 -0.044796616 0.039975114 0.07395335 -0.023220032 -0.063732155
-0.07086478 -0.10313722 0.009467235 0.07052921 -0.024913467 -0.01907951 0.049989667 0.019205973
-0.08470547 0.0842955 -0.058823273 -0.054212052 0.021328652 0.0471584 0.044535343 -0.004344107
-0.06346218 -0.000108040826 -0.0320689 -0.060772255 0.090247005 0.03943887 -0.07492735 -0.044326726
0.11157969 -0.0039893626 -0.07924519 0.059018817 -0.07834552 -0.037126828 0.031870134 0.06929153
-0.045737535 -0.032456495 0.14355856 0.044715583 -0.0036828048 0.02743183 0.058570676 -0.07448011
-0.010478579 -0.044522777 0.08812243 0.027228322 -0.029017942 0.073230684 -0.06387776 -0.025465611
0.036993306 -0.04614414 -0.05427638 -0.059406992 0.03680694 0.013919113 0.0842638 0.062797
-0.047401328 -0.044624727 0.057743896 0.07015932 0.03671794 0.007403816 0.026005028 0.032366876
-0.096054785 0.06951238 0.057133954 -0.05121352 -0.029018564 -0.011027433 0.03920091 -0.07286496
-0.0044410303 -0.049695555 0.027142216 -0.083008796 0.043832056 -0.023028363 -0.08000106 0.005505898
0.03587772 -0.07634134 -0.017714366 0.031146515 0.0058974666 0.023418166 0.078990266 -0.088820055
0.05589315 0.07509461 0.035778385 0.039679844 -0.079086944 -0.033189643 0.0834816 0.028826157
0.04521573 -0.01763712 0.07539737 0.00777549 0.034511264 -0.04718056 0.061178286 0.088797204
-0.05040633 0.01576172 -0.04327375 -0.1806716 0.0041695493 -0.01819435 -0.010261316 0.012115594
0.048244096 -0.062482115 0.076197244 0.013405049 -0.027421793 -0.040114157 0.020250779 -0.0051253624
0.0686843 -0.16655277 -0.070742555 -0.08585983 -0.095389895 0.10751692 0.04215981 -0.17305721
0.021255607 0.011762448 -0.12847905 -0.074758045 -0.008551577 0.009966031 -0.069838874 -0.10960697
-0.0006310151 0.073159456 0.073051214 0.07713355 -0.09535545 -0.05978286 0.06782888 0.0009230189
-0.075162 0.051396824 0.078580625 -0.028462812 0.089871876 0.08731431 -0.044155665 0.07526282
-0.0037108466 -0.041574754 0.1043743 -0.06558926 0.023198891 0.052214894 -0.04336379 -0.06184618
0.10458271 0.04095286 0.012023792 -0.0033547352 0.071165085 0.009380678 -0.029320823 -0.05588417
0.050288443 0.0466827 -0.05046545 0.0307876 0.10865652 -0.06257296 0.094401315 -0.034090932
0.056527883 0.0014651973 -0.0041524027 -0.015566203 -0.041503776 -0.026602669 -0.03742289 -0.023139555
-0.04439227 -0.09841115 0.10796445 -0.07601206 0.08528999 -0.043598793 -0.085988104 -0.13935742
0.040376987 0.04679925 0.056403443 0.089800686 -0.06492339 -0.0017511052 -0.02608181 0.07939876
-0.030310096 0.019958895 0.09329171 -0.016525012 -0.024375254 0.16262256 -0.012933102 0.0032710687
-0.022679651 0.056334868 -0.08395441 0.033700794 0.07330393 0.047466468 0.0113431215 -0.09392483
-0.034549706 -0.118440196 0.0805367 -0.08091278 -0.057512157 -0.032580454 -0.011854094 0.08212735
0.028652767 -0.039425127 0.05018679 0.0014682118 -0.001933942 0.041251503 0.1049256 -0.09875611
0.043047737 0.03507418 0.052498467 -0.010312604 0.07446151 -0.108437955 0.029533815 0.0023116688

fc2.bias f4 [84]
00000000: 9713 5bbb 9902 133d 8d05 723d ac80 49bd
00000010: e176 bc3e b29e ef3c 6a28 8d3c f7aa 2dbe
00000020: 3e0d c63d 91db b1bd bf1c 98bc ace1 bcbd
00000030: a6e6 533e b1eb 743e e3fe 50bd 539c e6bd
00000040: 0176 2e3e cde6 84bd 9307 443e 0a7a 8fbd
00000050: 9c50 93bc 3d91 473e cb24 463e 6df5 bbbb
00000060: 9ca7 3cbd 2ca7 cc3d 9677 8b3d 1141 953e
00000070: 1b5d 7f3a ae49 0bbd 254c 853e e019 103e
00000080: 2572 13bd 966d e33d 3b2f 973e c503 96bb
00000090: e6e9 56bd 3ba9 363e c820 ea3b 2c00 143d
000000a0: 05dc 3c3e 4c63 6f3c 2a85 cd3d 3557 8fbd
000000b0: c298 d53e 2ae8 c5bc 3995 f73d ba6f 85bd
000000c0: 23f5 863e 66d1 48bd efc4 2839 f0ab f73b
000000d0: faa1 273d 9a50 603b 00df b3bd 7b81 463d
000000e0: b7ca 00bd 1ed2 213c 1edc babd e365 3fbe
000000f0: ee6b c0bd 185a 67bd 7acb 313e 9803 05be
00000100: 7a8e 7b3c 9d3e 85bd 1314 a63e 93db 803e
00000110: a3a4 503d 3952 42bd 455f a8bd a8ec a53d
00000120: 7ef2 ddbd 3315 1a3c 5b04 063d e14b 473e
00000130: 1a63 8f3c 2e61 df3c 4191 8a3e 8d99 8e3d
00000140: 90ce 603c 90d6 eabb bf56 a93d 0617 583d
-0.0033428425 0.03589115 0.059087325 -0.049194977 0.36809447 0.029250477 0.017231185 -0.16959749
0.096704945 -0.08684457 -0.018568395 -0.09222731 0.20693454 0.23918034 -0.05102433 -0.11260285
0.17037202 -0.06489334 0.19143514 -0.07005699 -0.017982773 0.19488998 0.19349973 -0.005736044
-0.046058282 0.09992823 0.068099186 0.29151204 0.0009741352 -0.034005813 0.26034656 0.1407237
-0.03599753 0.11104886 0.2952822 -0.004578086 -0.052469157 0.17837994 0.007145021 0.036132976
0.18443306 0.014611077 0.10035165 -0.06999055 0.41718107 -0.024158556 0.12089009 -0.06515451
0.263589 -0.049027823 0.00016095092 0.0075583383 0.040925957 0.003422773 -0.08782768 0.048463326
-0.031443324 0.009876756 -0.09124015 -0.1869121 -0.09395586 -0.056482404 0.17362776 -0.12989652
0.015353793 -0.06506083 0.3243719 0.25167522 0.05093826 -0.047441695 -0.08221296 0.08101779
-0.10837267 0.009404468 0.032718997 0.1946254 0.01750331 0.027268019 0.27063945 0.06962881
0.013721123 -0.007166691 0.08268499 0.05275633

fc3.weight f4 [10, 84]
00000000: 9c27 0f3e 25c8 7c3e 80ae 43be 0500 a23c
00000010: 7331 d6bd 5699 9ebd cc92 003e 489d 143e
00000020: 4668 623d 7b30 81bd 784e d6bd 43ab 2c3e
00000030: 4759 e8bd 2275 2dbe 0a90 97ba 708f 90bc
00000040: 3902 eabd ace2 983d 470a cabd b34a fa3d
00000050: 4f6a a7bd 6f10 933e 625b 513e 840f 7f3d
00000060: a22a 36bd 5f61 1bbd 3b0a 4b3e a126 5abe
00000070: 9635 3e3e a7b5 b53d 2778 eb3c ec73 f9bc
00000080: f37c ab3b 847a 863e 15db b0bd 4937 d23d
00000090: 4308 e7bd 1a7a c23e 94bc 74bc eefe d0bd
000000a0: 25e2 0f3e db2f 03be f343 da3a 2fbd be3d
000000b0: a7eb 88be 0ec3 683e f8eb 5e3e 81f8 1bbe
000000c0: 2f5e 423d 456b d53c e261 273e 96da 5e3d
000000d0: 6149 ed3d 21de ff3b 0a62 93bc 5b62 64bd
000000e0: 530a 2bbd 7c0d 483d c6df ab3c 0226 ec3d
000000f0: bba9 07bd d50a f53c e51c 7a3d ce17 013e
00000100: fd8c 113d 0d9d f5bd 8391 a3bd 6f25 4dbc
00000110: 380a 96bd b477 32bc 3649 723d 1e92 37bc
00000120: 614e 6f3d ebad e4bd b7f5 f43d b6b6 e43d
00000130: 4451 6fbd e14c 413e 8f23 4bbe 9261 38be
00000140: 77d6 52be 0950 dfbc 3134 453c 164b dd3d
00000150: e250 04be 3081 7dbe 97c1 093e e3f0 8e3e
00000160: dbea a4be 8734 173e df75 d4bd 26c1 df3d
00000170: 96b1 9c3d 682e e63d e1ff 323e 0283 d53d
00000180: 62e8 50be a19e e1bd 24e3 d2bd 9a47 323e
00000190: 552e cdbd dabf ab3d 8c82 9abe 271d 0bbe
000001a0: 447e c4bd 2a6d 22bb 24b6 d0bc 7f38 33bd
000001b0: 3552 53bd 00c9 fd3c 86bb f13d 0658 cfbd
000001c0: c858 8e3e 916a 6d3e 613c 7ebe 10ec de3c
000001d0: bfa7 563d 1f51 83be 4372 cfbc 025a 73be
000001e0: ff88 e03c a353 173e 586c 133b 88e2 efbb
000001f0: 4ddc 89be 3e5e 773d 50c6 a13c 292d 65bd
00000200: e1a9 38be 94e3 043e 3194 393e d824 553d
00000210: 6798 09be 9752 ac3d 8da6 74bb 4f52 b2bd
00000220: 1eea 75be 42cc a23c 5c08 793d afde 4a3e
00000230: ca70 163c 6c69 1b3d 9fa5 78bc 00d8 9d3e
00000240: 6005 bdbd 46af 5f3e ed88 1abc 9979 f0bc
00000250: 2a8b 113d a728 ed3d 8369 8fbd 3f3f 43bc
00000260: 80eb d03b 5425 a73b 2b3f 3bbb b176 b2bc
00000270: ae41 a63e 52c0 21be 9000 0cbe 8913 dc3c
00000280: bc57 e13d aba5 073c cd55 2fbe a2a9 303e
00000290: 8c75 583e 9715 b33c ef74 41be bc01 dcbd
000002a0: d293 c23d 38d3 5b3d 53e5 af3d f9e4 8cbd
000002b0: 3c40 953e 1b05 4ebd b2a5 2b3c 1c83 323d
000002c0: 7d70 353d f7fb 8fbd bb42 943d ef4a b03b
000002d0: fba7 cb3d a94d 563e 2836 c6bc 9fb6 8cbd
000002e0: 311e 9f3d 1a7f 9bbc 28b6 c0bd 0072 f8bb
000002f0: 6001 1e3d 724f 3d3d dd2c 96bd 7071 c33e
00000300: 0070 f3bd 6ed1 a03d b8ad 20be 3069 3e3d
00000310: 1137 b0bd b81f 54be 071b d83d 6a87 3cbe
00000320: 1952 8e3c c391 05bd b2ce 4e3c ce60 2a3e
00000330: 34dd 33bd 8594 db3d 3150 3bbd 30af 8fbc
00000340: 5989 9b3e 7114 8d3d 8aaf ecbd f286 89bd
00000350: 695b 3c3e 4ad5 843d 7050 c1bd 345b 00be
00000360: 674a 9e3d b166 3d3d 4c2d 14be d3f9 823d
00000370: 17a1 8c3e a075 5a3d e95f 513d e42e acbc
00000380: 5621 afbd 6149 a03d 380d 733d b615 463c
00000390: 2045 773d 90b1 4bb7 3203 8dbd c71b 70bd
000003a0: 71f8 9bbd 30a6 06bd 48e9 97bd e6c0 b13d
000003b0: 0afc edbd af5e 6ebd 7bca 883c ff77 2f3e
000003c0: 300d c7bd 5084 c0bd 3640 9e3c 379a d7bd
000003d0: cf25 1d3b 0458 e8bd 8c62 083e e7a4 b0bd
000003e0: 442d 00bc cfee 11be ed3c 01be 066d 403d
000003f0: 81cf 86bc 54e4 703b 5cc5 073d 7d21 d9bd
0.13979954 0.24685724 -0.19109535 0.0197754 -0.104586504 -0.0774409 0.12555999 0.14513123
0.055275224 -0.06308075 -0.104641855 0.16862206 -0.11345153 -0.16939214 -0.0011563313 -0.017646521
-0.11426205 0.07465109 -0.098652415 0.12221279 -0.08174574 0.28723475 0.20445016 0.062270656
-0.04447425 -0.037934657 0.19828121 -0.21303798 0.18575129 0.08872538 0.028743817 -0.030450784
0.005233401 0.26265347 -0.086355366 0.10264451 -0.11280873 0.3798378 -0.014937539 -0.10204874
0.14051111 -0.12811224 0.001665233 0.09313428 -0.26742288 0.22730657 0.21769702 -0.15231515
0.0474531 0.026052127 0.16345933 0.05440768 0.115862615 0.0078084623 -0.017991085 -0.05575786
-0.041757893 0.048840985 0.020980727 0.11530687 -0.033120852 0.029912392 0.061062712 0.12606737
0.035534848 -0.11992846 -0.079867385 -0.012521132 -0.07326168 -0.010892797 0.05915185 -0.011204271
0.058424357 -0.11165985 0.11960929 0.11167662 -0.05842711 0.18876983 -0.19837783 -0.1800597
-0.20589624 -0.027259843 0.012036369 0.10805337 -0.1292148 -0.24756312 0.13452755 0.27918157
-0.3221043 0.14766131 -0.103740446 0.10925512 0.07651059 0.1123932 0.17480423 0.104253784
-0.20401147 -0.11016584 -0.1029723 0.17410126 -0.10018603 0.08386202 -0.30177724 -0.1358534
-0.09594396 -0.0024784305 -0.025477476 -0.04375505 -0.05159207 0.030979633 0.118033454 -0.10124211
0.2780211 0.23185183 -0.2482772 0.027212173 0.05240607 -0.25647828 -0.025323039 -0.23764804
0.027409075 0.14777999 0.0022494998 -0.007320706 -0.2692589 0.06039261 0.019747883 -0.05595127
-0.18033554 0.12977439 0.18122937 0.05203709 -0.13437043 0.0841419 -0.0037330717 -0.08707105
-0.2401509 0.019872788 0.060798988 0.1981151 0.009182164 0.037942335 -0.015176206 0.30828857
-0.09229541 0.21844205 -0.00943206 -0.029354857 0.035533108 0.115800194 -0.07002547 -0.0119169345
0.00637573 0.0051008854 -0.0028571587 -0.021785112 0.32471985 -0.1579602 -0.1367209 0.026864784
0.11003062 0.008279244 -0.17122574 0.1725221 0.2113859 0.02186088 -0.18892263 -0.10742518
0.09500851 0.05366823 0.08588662 -0.068796106 0.2915057 -0.050297838 0.010476517 0.043582067
0.04429673 -0.0703048 0.0723929 0.0053800265 0.09944149 0.20928062 -0.024195746 -0.0687077
0.077694304 -0.018981505 -0.094097435 -0.0075819492 0.03857553 0.046218343 -0.07332776 0.38172483
-0.11886597 0.078524455 -0.15691268 0.046487033 -0.08604253 -0.20715225 0.1055203 -0.18411031
0.017373132 -0.032609712 0.012622522 0.1663849 -0.043912128 0.10721687 -0.045730773 -0.01753959
0.30378225 0.068886645 -0.11556919 -0.06715192 0.18394245 0.06485994 -0.0943917 -0.12534791
0.07729035 0.046240512 -0.14470404 0.063953064 0.27466652 0.053334832 0.051116858 -0.021018453
-0.0855128 0.07826496 0.05933878 0.012090137 0.060368657 -1.2141085e-05 -0.06885375 -0.05862024
-0.07615746 -0.032873333 -0.07417542 0.086793706 -0.11620338 -0.058195766 0.016698113 0.17135619
-0.09719312 -0.094002366 0.019317728 -0.10527461 0.0023978835 -0.11344913 0.13318843 -0.086252026
-0.007823292 -0.14251254 -0.12620898 0.046978973 -0.016456367 0.0036757188 0.0331472 -0.106020905

fc3.bias f4 [10]
00000000: 2ca6 75be b64a 21bf 60d7 253e 9669 cf3e
00000010: ec82 d93e 9538 06be fc2e 9ebb 2d42 a5be
00000020: 2b93 a83e 3f27 7abe
-0.23989171 -0.63004625 0.1619544 0.40510243 0.42482698 -0.13107522 -0.0048273783 -0.3227705
0.3292478 -0.24429034
